Vgg-19/vgg19_medical.pth (torch, 1596 bytes, 2 tensors)

weight f4 [2, 10]
0	0x3d8eb6f4	0.06968489
1	0x3d61caf8	0.055125207
2	0xbe74e342	-0.23914817
3	0x3d871b10	0.06596959
4	0xbe00acd0	-0.12565923
5	0xbe322193	-0.1739562
6	0xbdd9c24a	-0.10632761
7	0xbd2f4028	-0.042785794
8	0x3e9fbf03	0.31200418
9	0xbe34113e	-0.17584702
10	0xbccfda70	-0.025372714
11	0xbde8934e	-0.11356221
12	0xbe57a77a	-0.21059981
13	0xbe8274f3	-0.2547985
14	0xbe9f7b24	-0.31148636
15	0x3e171492	0.1475394
16	0x3e0e4d10	0.13896585
17	0xbe30d16a	-0.17267385
18	0xbc03f760	-0.008054584
19	0xbe0f3c4f	-0.1398785

bias f4 [2]
0	0xbe8fa112	-0.28052574
1	0x3e9eff83	0.31054315
